…
], [[… 1], [[… 1], [[… 0], [[… 0], [[… 0], [[… 1], [[… 0], [[… 1], [[… 1], [[… 0], [[… 1], [[… 1], [[… 1], [[… 1], [[… 1], [[… 1], [[… 1], [[… 0], [[… 1], [[… 1], [[… 1], [[… 1], [[… 1], [[… 1], [[… 1], [[… 1], [[… 1], [[… 1], [[… 1], [[… 1], [[… 1], [[… 0], [[… 1], [[… 1], [[… 1], [[… 1], [[… 1], [[… 0], [[… 0], [[… 1], [[… 0], [[… 0], [[… 1], [[… 1], [[… 1], [[… 1], [[… 1], [[… 1], [[… 1], [[… 1], [[… 1], [[… 0], [[… 1], [[… 0], [[… 1], [[… 0]], 99]}, 'kernel_size': 3, 'dropout': 0.15, 'output_size': 2, 'model': ResNetAndrewNg(
  (encoder): Sequential(
    (0): ResNetBlockType1(
      (conv1): Conv1d(1, 8, kernel_size=(3,), stride=(1,), padding=(1,), bias=False)
      (bn1): BatchNorm1d(8, eps=1e-05, momentum=0.1, affine=True, track_running_stats=True)
      (conv2): Conv1d(8, 8, kernel_size=(3,), stride=(1,), padding=(1,), bias=False)
      (bn2): BatchNorm1d(8, eps=1e-05, momentum=0.1, affine=True, track_running_stats=True)
      (conv3): Conv1d(8, 8, kernel_size=(3,), stride=(2,), padding=(1,), bias=False)
      (pool): MaxPool1d(kernel_size=2, stride=2, padding=0, dilation=1, ceil_mode=False)
      (relu): ReLU()
      (dropout): Dropout(p=0.15, inplace=False)
    )
    (1): ResNetBlockType2(
      (bn1): BatchNorm1d(8, eps=1e-05, momentum=0.1, affine=True, track_running_stats=True)
      (conv1): Conv1d(8, 8, kernel_size=(3,), stride=(1,), padding=(1,), bias=False)
      (bn2): BatchNorm1d(8, eps=1e-05, momentum=0.1, affine=True, track_running_stats=True)
      (conv2): Conv1d(8, 8, kernel_size=(3,), stride=(2,), padding=(1,), bias=False)
      (conv_eye): Conv1d(8, 8, kernel_size=(1,), stride=(1,), bias=False)
      (pool): MaxPool1d(kernel_size=2, stride=2, padding=0, dilation=1, ceil_mode=True)
      (relu): ReLU()
      (dropout): Dropout(p=0.15, inplace=False)
    )
    (2): ResNetBlockType2(
      (bn1): BatchNorm1d(8, eps=1e-05, momentum=0.1, affine=True, track_running_stats=True)
      (conv1): Conv1d(8, 8, kernel_size=(3,), stride=(1,), padding=(1,), bias=False)
      (bn2): BatchNorm1d(8, eps=1e-05, momentum=0.1, affine=True, track_running_stats=True)
      (conv2): Conv1d(8, 8, kernel_size=(3,), stride=(2,), padding=(1,), bias=False)
      (conv_eye): Conv1d(8, 8, kernel_size=(1,), stride=(1,), bias=False)
      (pool): MaxPool1d(kernel_size=2, stride=2, padding=0, dilation=1, ceil_mode=True)
      (relu): ReLU()
      (dropout): Dropout(p=0.15, inplace=False)
    )
    (3): ResNetBlockType2(
      (bn1): BatchNorm1d(8, eps=1e-05, momentum=0.1, affine=True, track_running_stats=True)
      (conv1): Conv1d(8, 8, kernel_size=(3,), stride=(1,), padding=(1,), bias=False)
      (bn2): BatchNorm1d(8, eps=1e-05, momentum=0.1, affine=True, track_running_stats=True)
      (conv2): Conv1d(8, 8, kernel_size=(3,), stride=(2,), padding=(1,), bias=False)
      (conv_eye): Conv1d(8, 8, kernel_size=(1,), stride=(1,), bias=False)
      (pool): MaxPool1d(kernel_size=2, stride=2, padding=0, dilation=1, ceil_mode=True)
      (relu): ReLU()
      (dropout): Dropout(p=0.15, inplace=False)
    )
  )
  (fc): LinearProjection(
    (linear): Linear(in_features=8, out_features=2, bias=True)
  )
), 'dataloader': {'train': <torch.utils.data.dataloader.DataLoader object at 0x000001EF7C89F610>, 'valid': <torch.utils.data.dataloader.DataLoader object at 0x000001EF7E6644D0>, 'test': <torch.utils.data.dataloader.DataLoader object at 0x000001EF7E664D50>}, 'loss_function': CrossEntropyLoss(), 'optimizer': Adam (
Parameter Group 0
    amsgrad: False
    betas: (0.9, 0.999)
…
